…
wandb: ⭐️ View project at https://wandb.ai/mehtamohit013/ResNet9%20reduced%20DL_midterm
wandb: 🚀 View run at https://wandb.ai/mehtamohit013/ResNet9%20reduced%20DL_midterm/runs/0v2k444c
Downloading https://www.cs.toronto.edu/~kriz/cifar-10-python.tar.gz to ./data/cifar-10-python.tar.gz
Extracting ./data/cifar-10-python.tar.gz to ./data
Files already downloaded and verified
cuda
==========================================================================================
Layer (type:depth-idx)                   Output Shape              Param #
==========================================================================================
├─Sequential: 1-1                        [-1, 32, 32, 32]          --
|    └─Conv2d: 2-1                       [-1, 32, 32, 32]          896
|    └─BatchNorm2d: 2-2                  [-1, 32, 32, 32]          64
|    └─ReLU: 2-3                         [-1, 32, 32, 32]          --
├─Sequential: 1-2                        [-1, 64, 16, 16]          --
|    └─Conv2d: 2-4                       [-1, 64, 32, 32]          18,496
|    └─BatchNorm2d: 2-5                  [-1, 64, 32, 32]          128
|    └─ReLU: 2-6                         [-1, 64, 32, 32]          --
|    └─MaxPool2d: 2-7                    [-1, 64, 16, 16]          --
├─Sequential: 1-3                        [-1, 64, 16, 16]          --
|    └─Sequential: 2-8                   [-1, 64, 16, 16]          --
|    |    └─Conv2d: 3-1                  [-1, 64, 16, 16]          36,928
|    |    └─BatchNorm2d: 3-2             [-1, 64, 16, 16]          128
|    |    └─ReLU: 3-3                    [-1, 64, 16, 16]          --
|    └─Sequential: 2-9                   [-1, 64, 16, 16]          --
|    |    └─Conv2d: 3-4                  [-1, 64, 16, 16]          36,928
|    |    └─BatchNorm2d: 3-5             [-1, 64, 16, 16]          128
|    |    └─ReLU: 3-6                    [-1, 64, 16, 16]          --
├─Sequential: 1-4                        [-1, 128, 8, 8]           --
|    └─Conv2d: 2-10                      [-1, 128, 16, 16]         73,856
|    └─BatchNorm2d: 2-11                 [-1, 128, 16, 16]         256
|    └─ReLU: 2-12                        [-1, 128, 16, 16]         --
|    └─MaxPool2d: 2-13                   [-1, 128, 8, 8]           --
├─Sequential: 1-5                        [-1, 256, 4, 4]           --
|    └─Conv2d: 2-14                      [-1, 256, 8, 8]           295,168
|    └─BatchNorm2d: 2-15                 [-1, 256, 8, 8]           512
|    └─ReLU: 2-16                        [-1, 256, 8, 8]           --
|    └─MaxPool2d: 2-17                   [-1, 256, 4, 4]           --
├─Sequential: 1-6                        [-1, 256, 4, 4]           --
|    └─Sequential: 2-18                  [-1, 256, 4, 4]           --
|    |    └─Conv2d: 3-7                  [-1, 256, 4, 4]           590,080
|    |    └─BatchNorm2d: 3-8             [-1, 256, 4, 4]           512
|    |    └─ReLU: 3-9                    [-1, 256, 4, 4]           --
|    └─Sequential: 2-19                  [-1, 256, 4, 4]           --
|    |    └─Conv2d: 3-10                 [-1, 256, 4, 4]           590,080
|    |    └─BatchNorm2d: 3-11            [-1, 256, 4, 4]           512
|    |    └─ReLU: 3-12                   [-1, 256, 4, 4]           --
├─Sequential: 1-7                        [-1, 10]                  --
|    └─MaxPool2d: 2-20                   [-1, 256, 1, 1]           --
|    └─Flatten: 2-21                     [-1, 256]                 --
|    └─Linear: 2-22                      [-1, 10]                  2,570
==========================================================================================
Total params: 1,647,242
Trainable params: 1,647,242
Non-trainable params: 0
Total mult-adds (M): 98.16
==========================================================================================
Input size (MB): 0.01
Forward/backward pass size (MB): 2.88
Params size (MB): 6.28
Estimated Total Size (MB): 9.17
…
